…
Average actions of items: 12.267650061994019
The number of inters: 2018421
The sparsity of the dataset: 99.98086659257974%
Remain Fields: ['user_id', 'item_id', 'timestamp']
Tue 24 Dec 2024 15:38:37 INFO  [Training]: train_batch_size = [2048] train_neg_sample_args: [{'distribution': 'none', 'sample_num': 'none', 'alpha': 'none', 'dynamic': False, 'candidate_num': 0}]
Tue 24 Dec 2024 15:38:37 INFO  [Evaluation]: eval_batch_size = [4096] eval_args: [{'split': {'LS': 'valid_and_test'}, 'order': 'TO', 'group_by': 'user', 'mode': {'valid': 'full', 'test': 'full'}}]
Tue 24 Dec 2024 15:38:37 INFO  xxx4Rec(
  (item_embedding): Embedding(164533, 64, padding_idx=0)
  (LayerNorm): LayerNorm((64,), eps=1e-12, elementwise_affine=True)
  (dropout): Dropout(p=0.2, inplace=False)
  (layers): ModuleList(
    (0-1): 2 x Layer(
      (mamba): Mamba2(
        (in_proj): Linear(in_features=64, out_features=328, bias=False)
        (conv1d): Conv1d(192, 192, kernel_size=(4,), stride=(1,), padding=(3,), groups=192)
        (act): SiLU()
        (norm): RMSNorm()
        (out_proj): Linear(in_features=128, out_features=64, bias=False)
      )
      (dropout): Dropout(p=0.2, inplace=False)
      (LayerNorm): LayerNorm((64,), eps=1e-12, elementwise_affine=True)
      (filter): FilterLayer(
        (out_dropout): Dropout(p=0.2, inplace=False)
        (LayerNorm): LayerNorm((64,), eps=1e-12, elementwise_affine=True)
      )
      (ffn): FeedForward(
        (w_1): Linear(in_features=64, out_features=256, bias=True)
        (w_2): Linear(in_features=256, out_features=64, bias=True)
        (activation): ReLU()
        (dropout): Dropout(p=0.2, inplace=False)
        (LayerNorm): LayerNorm((64,), eps=1e-12, elementwise_affine=True)
      )
    )
  )
  (loss_fct): CrossEntropyLoss()
)
Trainable parameters: 10664688
Tue 24 Dec 2024 15:38:43 INFO  FLOPs: 5424064.0
Tue 24 Dec 2024 15:39:53 INFO  epoch 0 training [time: 70.24s, train loss: 9684.0954]
Tue 24 Dec 2024 15:39:54 INFO  epoch 0 evaluating [time: 1.44s, valid_score: 0.030400]
Tue 24 Dec 2024 15:39:54 INFO  valid result: 
hit@5 : 0.0365    hit@10 : 0.0539    hit@20 : 0.0754    ndcg@5 : 0.0249    ndcg@10 : 0.0304    ndcg@20 : 0.0358    mrr@5 : 0.021    mrr@10 : 0.0233    mrr@20 : 0.0248
…
