…
Average actions of items: 292.6261709601874
The number of inters: 999611
The sparsity of the dataset: 95.15741545057172%
Remain Fields: ['user_id', 'item_id', 'timestamp']
Wed 25 Dec 2024 13:36:09 INFO  [Training]: train_batch_size = [2048] train_neg_sample_args: [{'distribution': 'none', 'sample_num': 'none', 'alpha': 'none', 'dynamic': False, 'candidate_num': 0}]
Wed 25 Dec 2024 13:36:09 INFO  [Evaluation]: eval_batch_size = [4096] eval_args: [{'split': {'LS': 'valid_and_test'}, 'order': 'TO', 'group_by': 'user', 'mode': {'valid': 'full', 'test': 'full'}}]
Wed 25 Dec 2024 13:36:10 INFO  xxx4Rec(
  (item_embedding): Embedding(3417, 64, padding_idx=0)
  (LayerNorm): LayerNorm((64,), eps=1e-12, elementwise_affine=True)
  (dropout): Dropout(p=0.2, inplace=False)
  (layers): ModuleList(
    (0-1): 2 x Layer(
      (mamba): Mamba2(
        (in_proj): Linear(in_features=64, out_features=328, bias=False)
        (conv1d): Conv1d(192, 192, kernel_size=(4,), stride=(1,), padding=(3,), groups=192)
        (act): SiLU()
        (norm): RMSNorm()
        (out_proj): Linear(in_features=128, out_features=64, bias=False)
      )
      (dropout): Dropout(p=0.2, inplace=False)
      (LayerNorm): LayerNorm((64,), eps=1e-12, elementwise_affine=True)
      (filter): FilterLayer(
        (out_dropout): Dropout(p=0.2, inplace=False)
        (LayerNorm): LayerNorm((64,), eps=1e-12, elementwise_affine=True)
      )
      (ffn): FeedForward(
        (w_1): Linear(in_features=64, out_features=256, bias=True)
        (w_2): Linear(in_features=256, out_features=64, bias=True)
        (activation): GELU(approximate='none')
        (dropout): Dropout(p=0.2, inplace=False)
        (LayerNorm): LayerNorm((64,), eps=1e-12, elementwise_affine=True)
      )
    )
  )
  (loss_fct): CrossEntropyLoss()
)
Trainable parameters: 372464
Wed 25 Dec 2024 13:36:15 INFO  FLOPs: 21696064.0
Wed 25 Dec 2024 13:37:42 INFO  epoch 0 training [time: 86.60s, train loss: 3176.1566]
Wed 25 Dec 2024 13:37:42 INFO  epoch 0 evaluating [time: 0.23s, valid_score: 0.103600]
Wed 25 Dec 2024 13:37:42 INFO  valid result: 
hit@5 : 0.1262    hit@10 : 0.205    hit@20 : 0.2992    ndcg@5 : 0.0783    ndcg@10 : 0.1036    ndcg@20 : 0.1274    mrr@5 : 0.0627    mrr@10 : 0.073    mrr@20 : 0.0795
…
