…
Average actions of items: 16.403768283612923
The number of inters: 198502
The sparsity of the dataset: 99.92665707018277%
Remain Fields: ['user_id', 'item_id', 'timestamp']
Wed 11 Dec 2024 15:30:58 INFO  [Training]: train_batch_size = [2048] train_neg_sample_args: [{'distribution': 'none', 'sample_num': 'none', 'alpha': 'none', 'dynamic': False, 'candidate_num': 0}]
Wed 11 Dec 2024 15:30:58 INFO  [Evaluation]: eval_batch_size = [4096] eval_args: [{'split': {'LS': 'valid_and_test'}, 'order': 'TO', 'group_by': 'user', 'mode': {'valid': 'full', 'test': 'full'}}]
Wed 11 Dec 2024 15:30:58 INFO  xxx4Rec(
  (item_embedding): Embedding(12102, 64, padding_idx=0)
  (LayerNorm): LayerNorm((64,), eps=1e-12, elementwise_affine=True)
  (dropout): Dropout(p=0.4, inplace=False)
  (layers): ModuleList(
    (0-1): 2 x Layer(
      (mamba): Mamba2(
        (in_proj): Linear(in_features=64, out_features=328, bias=False)
        (conv1d): Conv1d(192, 192, kernel_size=(4,), stride=(1,), padding=(3,), groups=192)
        (act): SiLU()
        (norm): RMSNorm()
        (out_proj): Linear(in_features=128, out_features=64, bias=False)
      )
      (dropout): Dropout(p=0.4, inplace=False)
      (LayerNorm): LayerNorm((64,), eps=1e-12, elementwise_affine=True)
      (filter): FilterLayer(
        (out_dropout): Dropout(p=0.4, inplace=False)
        (LayerNorm): LayerNorm((64,), eps=1e-12, elementwise_affine=True)
      )
      (ffn): FeedForward(
        (w_1): Linear(in_features=64, out_features=256, bias=True)
        (w_2): Linear(in_features=256, out_features=64, bias=True)
        (activation): GELU(approximate='none')
        (dropout): Dropout(p=0.4, inplace=False)
        (LayerNorm): LayerNorm((64,), eps=1e-12, elementwise_affine=True)
      )
    )
  )
  (loss_fct): CrossEntropyLoss()
)
Trainable parameters: 909104
Wed 11 Dec 2024 15:31:03 INFO  FLOPs: 5424064.0
Wed 11 Dec 2024 15:31:15 INFO  epoch 0 training [time: 11.78s, train loss: 596.0037]
Wed 11 Dec 2024 15:31:15 INFO  epoch 0 evaluating [time: 0.29s, valid_score: 0.005700]
Wed 11 Dec 2024 15:31:15 INFO  valid result: 
hit@5 : 0.0075    hit@10 : 0.0111    hit@20 : 0.0239    ndcg@5 : 0.0045    ndcg@10 : 0.0057    ndcg@20 : 0.0089    mrr@5 : 0.0036    mrr@10 : 0.004    mrr@20 : 0.0049
…
